CNN.model (npz, 282632 bytes, 8 tensors)

predictor/conv2/W f4 [32, 16, 5, 5]
00000000: c82d 073d 9a3b 763c a767 35bc ed35 51bc
00000010: f08a a83c 20f1 50bb 504b c03d ca0f 42bd
00000020: 5494 08bd c860 623d eecc 96bc 6f0a eabc
00000030: 8c24 6ebd 6ab3 44bd 8eac cc3c db27 c9bc
00000040: 0b30 2bbc 2e48 eabb 3d8a a1bd 8f57 023d
00000050: 0542 ffbc 4fb8 ad3d d6b5 93bc c18a 94bc
00000060: 9c01 413d 6365 b13d c7fa 8b3c 83c0 f8bc
00000070: 695f 873b 3ac3 17bd e8b5 bfbb 7eb9 7f3c
00000080: 416c 303d 672e d539 0b31 353d 1d06 02bd
00000090: e3aa 09bd e55d 17bc a9ca 49bd aa0b 143c
000000a0: 8f19 08bd 6a6d 3bbd d9c8 653c 76c8 c33d
000000b0: 3481 d5bc 71bd 4fbc 98f4 38bc 74c3 56bd
000000c0: 1a46 313d c3d6 3ebd b13f afbc efa6 8b3d
000000d0: 587d 003c 3c88 4f3c 38b5 23bb ab33 c13b
000000e0: f1f6 913d e6ac 123d 37ae 92bd db13 a0bb
000000f0: ab6f dbbd 0974 c2bb 780a 5ebd 2cac dd3d
00000100: 48e6 ee3c 1e96 e4ba ed52 c03d d9f7 113d
00000110: c1ba 083d 1469 053d 1c24 afbd 8aec 343d
00000120: a84e c7bc aa56 cdbc 1ca5 81bc 7aeb df3c
00000130: 9e69 b53c dd4e 75bb 58c1 b7bd cc3d a0bc
00000140: 00a5 9c3a c308 d13a e6c0 683d a892 80bc
00000150: ab00 3ebd 4993 2e3d 945b 22bd 2fe9 9f3c
00000160: 242c 8a3d e521 153d 4a88 833d afcc ab3d
00000170: 8a00 3a3d 614d 0abc bdea 10be 76f0 933d
00000180: cfb3 06bd 7460 3ebd 447e a9bb e1af 713d
00000190: e843 1d3d d229 40bd c897 ba3d 2d44 0ebc
000001a0: dcbf d33d e828 e6bc af59 013c 48bc 02bd
000001b0: 5b9f a73d 9dc3 003d 1dae 04bd 7b91 793d
000001c0: b228 70bd 322d 4e3d 1578 6abb 8fd5 b6ba
000001d0: 47a2 7abd 1329 91bd 927c 57bc 76e0 d23c
000001e0: d47d 9e3d fa02 05bd 2f95 01bd a470 8ebc
000001f0: a6c5 513d 9a76 bbbd 066a abba 45b2 8fbd
00000200: 04f8 24bd 0f62 c5bc 4be2 acba d09c 9abb
00000210: 4f09 eb3b fa0a 1f3d 3843 e8bc 4714 2bbd
00000220: 0769 42bc 5f07 62bc 70cc aabd 3a4d 1e3d
00000230: a49c d2bd 5a76 3f3d 4505 be3c f9cb 8f3d
00000240: 3e3f 3c3c a9b8 c53d 559c 013d caa0 41bd
00000250: fab6 833d ce09 d73c 5830 923d eb10 8dbc
00000260: bdfd 72bc 0083 3b3d e82f a53d 69b7 ae3d
00000270: 56bb eb3d 3ebb e7bd 18fe af3c 738f a03b
00000280: d562 343d 04db c9bc 9800 5c3c 17a3 2e3c
00000290: c3d4 7cbb 5c35 3bbd 43c1 50bd 5d92 cabd
000002a0: 6a4f 81bd 873d c83d 7ce9 a5bc 2ac2 2ebd
000002b0: 46b5 75bd 94ae e0bc 84a9 45bd a77c 00bc
000002c0: 12ba 14bd 8352 75bd e053 73bd 656f c93c
000002d0: ea8a 203d 430c a8bd d739 01be 49b0 933d
000002e0: 0a28 12bb 9d10 a1bd 96f3 68bd bbe1 1dbd
000002f0: 7514 eabd e920 883c 7838 39bd cc72 4b3d
00000300: 7c26 063d 8524 6fbd 13f4 3ebd b036 aebc
00000310: 8947 6d3d a19b d0bd 7df6 51bc b511 82bd
00000320: 88d0 b93c 4baa 123c f298 73bd 5cf3 f23b
00000330: 04b6 2a3c abb9 673b 370f 623d 0d85 023c
00000340: 2612 aa3c 3cbc 2ebd 6bd1 26bd 2ec8 91bd
00000350: 6e4a 5bbd 9542 81bd 308b 2a3c 3d70 d6bd
00000360: 3d35 e23c 7730 983d ef27 923d 978d f93c
00000370: 7c35 b8bc 88a0 7f3d ef63 fabc 4ff2 51bd
00000380: def4 923c ad9d 423c 3436 823d f50a 253d
00000390: 3a76 0c3d 1987 83bc 6965 51bd f47c cb3a
000003a0: 37c6 393d d81f 50bd fa8f 6b3c 1ccc 74bc
000003b0: bbfc 6a3c 9552 723d 4877 203d 5a8b 9fbc
000003c0: 95ec a7bb 7fb3 b3bc 38e9 d43c ca5e d63d
000003d0: 9be1 a63d 14e7 4e3d 33ed ba3d a23a 093d
000003e0: 8959 f6bd c876 9cbb 5414 7ebd df1b 20bd
000003f0: 5197 5d3d de82 e53c 47bf 7dbd 38f8 d53c
0.033002645 0.015028859 -0.011072076 -0.012769205 0.020574063 -0.0031882003 0.09389365 -0.04737834
-0.03334458 0.05526808 -0.018408265 -0.028569428 -0.058140323 -0.048022665 0.024984624 -0.024555137
-0.010448466 -0.007149718 -0.07887695 0.031821784 -0.03115941 0.0848242 -0.018031042 -0.01813257
0.047120675 0.08661916 0.017087353 -0.030365234 0.004131247 -0.037051417 -0.0058505423 0.01560819
0.04307199 0.00040661098 0.044236224 -0.03174411 -0.033610236 -0.009238695 -0.049265537 0.009035984
-0.0332275 -0.045758642 0.014024937 0.09559719 -0.026062585 -0.012679444 -0.011288784 -0.052432492
0.043279745 -0.04659153 -0.021392675 0.068189494 0.007842384 0.012666758 -0.002497984 0.005896052
0.071271785 0.03580942 -0.07162135 -0.0048851795 -0.10714658 -0.0059342426 -0.054209203 0.10823855
0.029162541 -0.0017439758 0.09390817 0.035636757 0.033381227 0.032570913 -0.08551809 0.044170894
-0.024329498 -0.025065739 -0.0158258 0.027333964 0.022145089 -0.003743104 -0.08972424 -0.019560717
0.0011951029 0.0015948046 0.056824587 -0.015694931 -0.046387356 0.04262093 -0.039638117 0.01952037
0.067467004 0.036409277 0.064224795 0.0838865 0.04541067 -0.0084413 -0.14152046 0.07223599
-0.032886323 -0.046478704 -0.0051725227 0.05900562 0.03839484 -0.046914883 0.09110981 -0.008683247
0.10339329 -0.028095677 0.007894917 -0.03191784 0.081846915 0.03143655 -0.03239261 0.060929757
-0.05863256 0.05033607 -0.003577714 -0.0013949143 -0.061189916 -0.070879124 -0.0131522585 0.025741797
0.077388436 -0.03247354 -0.031636413 -0.017387696 0.051213883 -0.09153481 -0.0013077862 -0.07016424
-0.04027559 -0.02409461 -0.0013189999 -0.0047184005 0.0071727405 0.038828827 -0.028352365 -0.041767385
-0.011865861 -0.013795703 -0.083397746 0.038647868 -0.10283783 0.04674373 0.023195872 0.070213266
0.0114896875 0.09654362 0.03164323 -0.04727248 0.064313844 0.026249792 0.07138127 -0.017219981
-0.014831004 0.04577923 0.08065778 0.085310765 0.11510341 -0.113150105 0.021483466 0.004899913
0.044039566 -0.024640568 0.013427876 0.010659001 -0.0038578964 -0.045705184 -0.05096556 -0.09891198
-0.06313975 0.097773604 -0.020252936 -0.042665638 -0.05998733 -0.027426995 -0.048257366 -0.007842219
-0.036310263 -0.059893142 -0.05940616 0.02458925 0.03919498 -0.08205464 -0.1261972 0.07211358
-0.0022301697 -0.07864497 -0.056872927 -0.03854535 -0.11429683 0.016617255 -0.04521987 0.049670026
0.032751545 -0.058384437 -0.046619486 -0.021266311 0.05792955 -0.10185934 -0.012815115 -0.063510336
0.022682443 0.008951734 -0.059472032 0.0074142646 0.0104193725 0.003535847 0.05519029 0.007966292
0.020760607 -0.042659983 -0.04072706 -0.07118259 -0.05353778 -0.06311528 0.010409161 -0.104706265
0.027613277 0.07431119 0.07136523 0.030463023 -0.02248644 0.062408954 -0.03056523 -0.051256474
0.017939027 0.011878413 0.06357995 0.040293653 0.034292437 -0.01605563 -0.051122103 0.001552491
0.045355048 -0.05081162 0.014377588 -0.014941242 0.014342482 0.059160788 0.039176255 -0.019475628
-0.0051246383 -0.021936176 0.025990114 0.10467298 0.081484996 0.050513342 0.091272734 0.033503182
-0.12028796 -0.004774902 -0.062031105 -0.03908908 0.054099385 0.028016504 -0.061949994 0.026119336

predictor/l4/b f4 [2]
00000000: 5579 533b 7d79 53bb
0.0032268364 -0.0032268458

predictor/conv1/b f4 [16]
00000000: f6a5 19bc 5055 c03a 85a7 dc39 890f 32bc
00000010: 370b 07bc fe02 eabb 6607 d8bb 251b 493c
00000020: 8654 0fbc 8f42 57bb 96ca 47bc 8ae2 853b
00000030: 70f7 11bc a67f 13bc f091 52bc c8e4 6abc
-0.009377947 0.0014673863 0.00042086482 -0.010867962 -0.00824242 -0.00714147 -0.006592679 0.012274538
-0.008748179 -0.0032846068 -0.012194296 0.0040858435 -0.008909091 -0.009002602 -0.012852177 -0.014336772

predictor/conv3/W f4 [64, 32, 5, 5]
00000000: a3f4 4c3d ac28 3bbc d0ed 623d 046e ae3b
00000010: 0c67 8abd 08c9 b8bc 03a3 b6b9 428a 333d
00000020: 0d2e 043c add6 933d acf0 fe3b 29c9 75bd
00000030: ad85 e9bc f6f3 36bd b0d4 f73c f430 013d
00000040: 2ffe 513d 3e03 1dbc 1147 8e3d 5a27 8a3d
00000050: 2e4d d8bb 5d55 05bd 6f28 c9bd e9f7 dcba
00000060: 1226 e1bc 3c5d c13c eaa1 613d 0fde 24bd
00000070: dd4c d2bc 751a 8e3b 4ad6 173d 86c2 a1bb
00000080: 49d0 2d3d b263 363d fbf3 d9bc e333 993c
00000090: a61b 0dbb 3cfd ffbc 6f3e 7bbc f682 c53c
000000a0: 50e8 f8bb 9be8 b9bc 0443 e13c 5982 653c
000000b0: 1e68 46bd 8697 7d3d 87c0 b0bb c961 243c
000000c0: 684d cb3c 9259 63bb 40d6 4a3d 0a23 4a3c
000000d0: 4406 cbbc 03af 6fbc d5fd 313d de57 433d
000000e0: 1fb3 4dbd 662a 11bd bef6 663d b164 10bd
000000f0: 7d70 d2bb 1a09 143d d26c 9fbc 85b4 03bd
00000100: 8a92 413d db8f 64bd 662a b7bd 93b4 5b3b
00000110: cbc2 66bc 47e3 5c3d 6c44 203d b6b1 60bd
00000120: 1c72 4e3c 026e b5bc ba2d 07bd 332b 653a
00000130: 79b8 2c3d 859f b23c a2d6 053d 9cb7 423c
00000140: f49a c83b f45b 86bc 6ccd 9ebd a0ae 633c
00000150: 084b 91bd 7e23 11bd 0e3e 0e3c 925f b0bb
00000160: a627 aabc 02b5 053d 6b35 d03a dd38 543b
00000170: 6d22 8cbd 5b4b 16bc c3a0 6bbc f812 d8bc
00000180: ac40 c13c e4b6 0a3a 8321 b13d 623b 2c3d
00000190: bab3 a53c 9cda b4bd ba72 173c 7938 ddbc
000001a0: 2335 97bc c242 89bd ee5c f2bc c3ca ef3c
000001b0: 80a2 2abc e66c 99bd a581 a1bb 44df 9fbc
000001c0: 76ab ce3c 39e5 f0bb af93 1b3b 1510 183d
000001d0: 7b70 b03b eb52 cbbc ea5a 3dbd c2c6 ddbc
000001e0: d752 193a fd79 893d 62be 19bd 3218 313c
000001f0: f406 213c b278 0e3d a2bd 60bd 211e 5fbb
00000200: 2efc 7d3c 62b7 e2bc 1607 acbc dfa2 c23c
00000210: 8c9b 483d c133 233d 9a78 1d3d e449 5f3c
00000220: f525 033a 7995 07bd c6a0 333b f208 85ba
00000230: 57fa 60bb a977 623c 1819 0dbc 07fc b13c
00000240: a4f1 88bd 850f 9abc 419e 07bd 87d8 dc3c
00000250: 6cd0 793c e1f7 bcbc f6a4 273d 498a 24bd
00000260: bb1e 4bbd 84f4 883c 22fd ba3b f35c e1bc
00000270: 9b13 a9bc 59d4 673d ba2f 68bc 3138 22bc
00000280: 4e2f 333d 136e 03bc 922d 82bc 56ac 28bd
00000290: e9c0 013d c8ba ad3c bee6 013d 3d65 55ba
000002a0: 846b 3d3d 8006 03bd 2abb 393d 7e03 8d3c
000002b0: f304 543c 734a 36bb c281 e93c 3408 1e3d
000002c0: e7b8 1e3d 874a 5b3b 7165 c43c baa3 41ba
000002d0: f457 3dbc 867a 4bbc 14f9 e33b 27d5 663d
000002e0: 17aa f8bc 5e6d 263c ecc1 85bc 8343 903c
000002f0: a2bd 0a3d 1fa4 833d 8b73 873d 2b62 b43c
00000300: 1b13 1f3d 174f 05bd 3d52 063d 6e59 813d
00000310: 5959 493d 81bd 9cbb de2a 52bb 775b 803c
00000320: 4e2a 263d 31cf 15bc cd2c fbbc 9db3 3f3d
00000330: 73b7 04bd c1f7 953d de60 6fbc 4d07 8cbc
00000340: fa51 353d 55eb 3dbd c203 4bbc 2ec3 e13c
00000350: b5cf 983c 9c6c 4cbd 9eed 7cbd c5a7 143c
00000360: 6bd7 2dbd ae10 c3bd 14b9 4abd c08d c83c
00000370: 9917 5e3d 0342 37bc 1e64 7a3c cdb4 3dbc
00000380: 363b d23c 5709 26bb c523 00bd d953 5c3c
00000390: 2938 18bd 0fd9 0d3d 2ff5 d03c deda e5bb
000003a0: d4ff 2abd 9692 7a3d 5e95 18bc 4a75 2dbd
000003b0: 1f1f 2abb 31f4 2c3d a46d 8f3b 2479 173d
000003c0: a62c c5bc 7bdf d5bb 6d99 19bc 4eca 7ebb
000003d0: e34d 9f3d 26cf 753b 96c4 91bd 0e71 1f3d
000003e0: bae9 173c 31d0 ce3b abd0 bc3c 5098 f4bc
000003f0: a98d cdbb 813f 49bd cf04 a23c aa8b 3f3c
0.05003799 -0.011423271 0.055402577 0.0053231735 -0.06757936 -0.022556797 -0.00034835198 0.043833025
0.00806762 0.072186805 0.007780155 -0.060006294 -0.028506124 -0.044666253 0.030252784 0.031540826
0.0512678 -0.0095832925 0.069471486 0.06745787 -0.0066009974 -0.032552112 -0.09822165 -0.0016858551
-0.027483974 0.023604028 0.055086054 -0.040250834 -0.025671417 0.00433665 0.037069596 -0.004936519
0.042434964 0.04452867 -0.026605597 0.0187015 -0.0021531372 -0.031248681 -0.01533471 0.024110299
-0.007596053 -0.022693923 0.027497776 0.014008128 -0.048439138 0.061912082 -0.005394045 0.010033079
0.024817184 -0.003469084 0.04952073 0.0123374555 -0.024783261 -0.014629128 0.043454964 0.04769122
-0.05021965 -0.035440825 0.056387655 -0.035252277 -0.006422101 0.036141492 -0.01946107 -0.03215458
0.04725889 -0.055801254 -0.08943634 0.0033524379 -0.014084528 0.053927686 0.039127752 -0.05485698
0.012600448 -0.022147182 -0.033002593 0.0008742094 0.042168114 0.02180458 0.032675393 0.011884596
0.0061219875 -0.016401269 -0.07754025 0.013896614 -0.07094389 -0.03543424 0.008681787 -0.0053824866
-0.020770859 0.032643326 0.001588506 0.0032382526 -0.06842504 -0.00917324 -0.01438159 -0.026376233
0.023590408 0.0005291535 0.0864897 0.04204882 0.020227302 -0.08830759 0.009243662 -0.027004467
-0.018457955 -0.06702186 -0.029585328 0.029271489 -0.01041472 -0.07491474 -0.004928785 -0.019515641
0.025228243 -0.007351544 0.002373915 0.037124712 0.0053845025 -0.024819812 -0.04622928 -0.027072314
0.0005848831 0.067127205 -0.03753508 0.010808991 0.009828318 0.034783073 -0.054868348 -0.0034045058
0.015502019 -0.027675334 -0.020999473 0.023759304 0.048976466 0.03984428 0.038445093 0.013628457
0.00050029095 -0.033101533 0.002740906 -0.0010149761 -0.0034328902 0.0138224745 -0.00861194 0.021726621
-0.06686714 -0.018806228 -0.033109907 0.026958717 0.015247446 -0.023067417 0.040928803 -0.04017094
-0.049589854 0.016718157 0.0057064453 -0.027510142 -0.020639231 0.056598995 -0.014171535 -0.009901092
0.043746285 -0.008021849 -0.01589087 -0.041179977 0.031678114 0.021207228 0.031714194 -0.0008140391
0.046245113 -0.03198862 0.04534451 0.01721358 0.012940633 -0.0027815371 0.028504256 0.03858204
0.038750555 0.003346117 0.023974152 -0.0007386763 -0.011556614 -0.012419349 0.0069571827 0.05635562
-0.030354543 0.010157911 -0.01632782 0.017610317 0.033872254 0.06427788 0.06613835 0.022019466
0.03883658 -0.03254613 0.032793272 0.063158855 0.049157474 -0.004783333 -0.0032069008 0.015668614
0.04056769 -0.009143637 -0.030661011 0.046802152 -0.032401513 0.07322646 -0.014610497 -0.017093325
0.044267632 -0.04636701 -0.012391033 0.02755889 0.01865373 -0.049908265 -0.061750047 0.0090732025
-0.042441767 -0.09524666 -0.04949291 0.024481654 0.054221723 -0.011185172 0.015282659 -0.011578751
0.025663 -0.0025335157 -0.031284112 0.013447725 -0.037162933 0.03463083 0.025507538 -0.0070146164
-0.041747883 0.06117495 -0.009312956 -0.042348184 -0.002595849 0.042225067 0.004377084 0.036980763
-0.024069142 -0.006526885 -0.009374958 -0.0038877907 0.077785276 0.0037507503 -0.07117574 0.038926177
0.009272033 0.0063114394 0.02304872 -0.029857785 -0.0062729907 -0.049132828 0.019777684 0.011691013

predictor/l4/W f4 [2, 5184]
00000000: bf7c 1abd baea 943d 24e4 603c 7353 063e
00000010: 3a0e 15bb 15fd 06bc 4d7b 1bbd d97c beb9
00000020: 8535 ad3c 643a edbc 65eb 7d3b 2429 69bd
00000030: 1905 bdba db6f 95bd 9242 88bb 4e23 013d
00000040: 0dbd 393d e83c a2b9 feac 7cbc 81d1 01bd
00000050: 2903 01bc fecf 343d 30ed 0c3d 7000 c43c
00000060: dc44 2abd 156a 0b3d 0211 3e3d 0c1d 67bd
00000070: e949 60bd 264d 74bc ed87 aaba 0d3f 63bd
00000080: f03d 973c 08a9 9a3b fa51 ad3c f882 38bd
00000090: e922 4cbc 03f1 bbbd a31c e73c 7b44 8bbc
000000a0: 3e4a c5bc dd6c 7dbd dc0f 9dba 517b 523d
000000b0: 5cad 9abd cff6 62bd 10b4 9c3c ac5a 5b3d
000000c0: 4827 e13c c922 b83b 36d1 7dbd d6ba e63c
000000d0: df70 993d 52ae 10bd a38c 64bd c7f2 533d
000000e0: a1e9 d8bd 1e27 48bd d90a 04bd d6de e7bb
000000f0: ede4 ab3d e9ef 73ba 32ee c9bb 98d0 56bd
00000100: 62e8 06bd 7217 923d 1156 ffbc e627 2f3d
00000110: 8770 7fbc 3596 6d3d b501 c53c 0072 d1bc
00000120: 76c4 c53c c8d5 983c d7da c73b a222 043e
00000130: 7e0a 35bd 6f0b 1a3d 492f 80bd 63d1 dfbc
00000140: f00a e33c 5a2f 123c afbb 17bd 5926 e23c
00000150: 478d 1b3d 4773 69bb 5ea3 ff3c 4a75 fbbc
00000160: 8f66 273b f92e 36bd ac36 c03c dcf7 a0bb
00000170: b26c 493b 06d7 adbd 8cff 36bd f683 33bb
00000180: 68fc e63c 410d c4bd c09b 1bbd 3568 78bd
00000190: 926c 443d 9f71 5cbd cc3d 873c 2d6f f83c
000001a0: 1a41 9abd a139 00be 936b bcba 4d42 973d
000001b0: 8797 1d3d cb3c 57bd fe78 44bc 9388 613d
000001c0: 786e 993a 1bc5 1d3d b81f b63c e068 123c
000001d0: ae3a 493c 9773 3abc 228a 7abd 80de f13c
000001e0: f9f4 d5bc 00cf 90bc 892e 7a3c e682 8bbc
000001f0: ddde 333d 8c44 af3c 28b5 2fbd 9501 a1bd
00000200: 7a19 17bc 1457 52bd a7a6 1bb9 cc0b cf3c
00000210: cfec b63d e5d0 a7bc f7fe 9cbd 15d8 323d
00000220: d8c3 dd3c 2218 83bd 6c43 d03d 960c 05bd
00000230: 65bf 1f3d 2c90 a33c 9467 6c3d afa2 35bc
00000240: 983a 893c 9d18 7bbc c54c 1a3d 4471 28bd
00000250: 6bc8 a2bd 2ad3 c8bd e6b2 bf3d 9eb5 463c
00000260: 8cf3 f4bd dc2a e33c 30d1 e8bc c169 863d
00000270: dc5d bbbc b666 b3bd 764d 863c 3aed 15be
00000280: ed30 873d 5530 ea3b 71e5 a2bd c1c1 f8ba
00000290: e2be 6fbd bea0 903d ce08 923c 002a 8fbc
000002a0: 7c93 33bd 5fe8 1e3d b30e e53d 1b87 1539
000002b0: c999 643d 3392 243d 3a3d a6bd 3156 713d
000002c0: 7afb 313d 2bd5 49bd 4661 1cbd 416b a4bd
000002d0: 875c 8dbd 1e64 223d a563 d63c d2e8 733d
000002e0: f24b c1bc eefd 8e3d 669b 43bd 83e2 12bd
000002f0: 19c9 69bd e812 b03d 6870 67bd 3242 f63d
00000300: 6e58 c43d 25a9 68bd 8424 3abb b03f b53d
00000310: 5c3b c43d f352 c33c 668e e33a 2da0 a43d
00000320: f78a be3c 4654 a3bc e0fd b4bc f861 f93c
00000330: 1ae7 2bbd 0cd3 323d 6b54 a2bc df96 9d3d
00000340: e2ca 9abd d13e a7bc 85ed cfbc 688f 243d
00000350: 5398 05bd bdad 023d 2745 773d ba43 21bd
00000360: ab29 b6bd 867f b6bc 4b81 4dbd 96c6 2abd
00000370: 0e8d 5ebc ac6f e2bd 9cf1 8abc 3107 5dbc
00000380: 55e1 66bd 7618 68bd 786d a3bd fb74 6abd
00000390: 3181 c9bd 7a6d 0c3e 4f24 9fbd 509b 55bc
000003a0: 492c b83c 90cc 0fbd cafe a1bc a21e d33c
000003b0: 758d 6bbb b9c1 a43d 814d 593c eb9c bebb
000003c0: 46dc 86bb 4b16 e3ba 38e9 1fbc 6274 d23c
000003d0: 89c4 9f3b b588 90bd 5a91 0f3d 5c11 a6bc
000003e0: 76ca a73d f2db 2f3d 87d5 91bc 3813 86bc
000003f0: 3cd7 21bd e405 f63c d18a a53d c89a ee3d
-0.037716623 0.07271333 0.013726268 0.13117771 -0.0022744075 -0.00823905 -0.037959386 -0.00036332643
0.021143684 -0.028958507 0.0038745042 -0.056924 -0.0014421075 -0.07296725 -0.0041583264 0.03152781
0.04534631 -0.00030944427 -0.015422104 -0.03169394 -0.007874289 0.04414367 0.034405887 0.02392599
-0.041569576 0.034036715 0.04640294 -0.056424186 -0.054757986 -0.014910972 -0.001301048 -0.05548005
0.018462151 0.004719857 0.021157254 -0.045046777 -0.012459495 -0.09176829 0.028211897 -0.017000427
-0.024083253 -0.0618714 -0.0011982876 0.051387135 -0.07552597 -0.055411156 0.01912883 0.05355327
0.027484551 0.005619381 -0.061967097 0.028165262 0.074922316 -0.035322495 -0.055798184 0.051745202
-0.10591436 -0.04886543 -0.032236908 -0.0070761247 0.083932735 -0.0009305464 -0.0061624283 -0.052445024
-0.03293646 0.07133378 -0.03116897 0.04276266 -0.015590793 0.058004577 0.024048666 -0.025567055
0.024141531 0.018656626 0.006099086 0.12903836 -0.04419946 0.03760856 -0.06259019 -0.027321523
0.027715176 0.008922422 -0.037044223 0.027606176 0.03797653 -0.003562169 0.03120583 -0.030695576
0.0025543307 -0.04447839 0.02346357 -0.0049123596 0.0030734953 -0.08488278 -0.044677302 -0.0027391887
0.028196529 -0.095728405 -0.03799033 -0.060646255 0.047955103 -0.053819295 0.01650896 0.03032645
-0.075319484 -0.12521984 -0.0014375321 0.07385693 0.038474586 -0.05254821 -0.011991737 0.055061888
0.0011705896 0.038518053 0.022231922 0.008936137 0.012282057 -0.011380098 -0.06116689 0.029525042
-0.026117789 -0.01767683 0.015269884 -0.01703019 0.04391371 0.02139499 -0.042897373 -0.0786163
-0.009222383 -0.051352575 -0.00014844035 0.02527418 0.089318864 -0.02048535 -0.07665818 0.043663103
0.027070925 -0.06401087 0.1016911 -0.032482706 0.039000887 0.019966207 0.057715967 -0.01108615
0.016751572 -0.0153256925 0.03767087 -0.041123644 -0.07948383 -0.09805901 0.09360294 0.012128262
-0.119605154 0.027730398 -0.02842006 0.0656314 -0.022871904 -0.08759825 0.016394358 -0.14641276
0.06601129 0.007146875 -0.07953919 -0.0018978642 -0.05853165 0.07061909 0.017826464 -0.017476082
-0.043841824 0.038795825 0.11184444 0.00014260078 0.055810723 0.04017849 -0.08117147 0.05892009
0.043452717 -0.04927556 -0.038178705 -0.080282696 -0.06902414 0.03964626 0.026170561 0.059548207
-0.023595784 0.06982027 -0.04775562 -0.03586055 -0.057076547 0.08597356 -0.056503683 0.120243445
0.09587179 -0.056801934 -0.0028403113 0.08850038 0.095816344 0.023843264 0.0017361164 0.080383636
0.023259623 -0.019937646 -0.022093713 0.030442223 -0.041968442 0.0436583 -0.019815644 0.07694792
-0.07558228 -0.020415695 -0.025381813 0.040175825 -0.03261597 0.03190397 0.060368683 -0.03937123
-0.08894666 -0.022277605 -0.05017213 -0.041693293 -0.013583435 -0.11056456 -0.016960911 -0.013490484
-0.056367237 -0.056663953 -0.07979864 -0.057240468 -0.098390944 0.13713637 -0.07770597 -0.013037518
0.022482054 -0.035107195 -0.019774813 0.025771443 -0.003594247 0.08044762 0.013263107 -0.005817046
-0.004115614 -0.0017325369 -0.0097601935 0.025690261 0.0048757237 -0.07057325 0.035050727 -0.02027195
0.08192913 0.042934366 -0.017802013 -0.016366586 -0.039511904 0.030032106 0.08083118 0.11650616

predictor/conv2/b f4 [32]
00000000: 1b2e f1bb dc9e d2bb e75d 2ebb ee5a 74bb
00000010: 5ac5 aa3c 4c31 3dbc 6bea 1dbb 79e4 15bc
00000020: 232c 5fbb adf5 24bc 8031 f13a 3ad0 13bc
00000030: 7e0f b6ba b905 96bb f8c4 a239 8422 113b
00000040: 5ec6 d6bb fc24 75bb 987e 32bc 4428 b3bb
00000050: bacf f7bb 2b24 02bc 8ed4 953a a2f5 e63c
00000060: 5a5b 25bc 2cea 46bc 5932 dbbb 57cf f9bb
00000070: 87c6 1ebc 74d1 c9bb e6a5 39bc 5f7d 2bba
-0.0073602325 -0.006427629 -0.0026606263 -0.0037285644 0.020846058 -0.011547398 -0.0024096023 -0.00914871
-0.0034053407 -0.010068339 0.0018401593 -0.009021813 -0.0013890115 -0.004578319 0.000310458 0.0022145817
-0.006554409 -0.0037406078 -0.01089444 -0.0054674465 -0.0075626047 -0.007943193 0.0011431144 0.028193299
-0.010092581 -0.012140792 -0.0066893515 -0.007623594 -0.009690887 -0.006159002 -0.011331057 -0.0006541814

predictor/conv1/W f4 [16, 3, 5, 5]
00000000: 7e59 e13d 399f 22be 1f74 fdbd 7b7f 11be
00000010: eadf e8bc c1d4 b3bb 8ab0 913d b558 123e
00000020: 93cf 813d 7570 ec3c 506d 303e 730b a5bd
00000030: 4772 56be 167a 9dbe 54ce 97bc 5480 ef3c
00000040: 7304 2d3e 2eaf 74bd ad81 6b3c 4a5e 2f3d
00000050: bda3 2ebe 1f09 2abe 54d8 78bd 8a96 9e3b
00000060: d8df 133c 8ea2 47bd edd7 bdbd 4042 fb3d
00000070: 678f c5bd d28d b4bd 76b3 2dbd e52c 5b3e
00000080: bfe2 763a 5d80 813b 3c4f a6bd 0f44 fd3c
00000090: dda9 0abe d234 bcbd b533 43be 11f7 523d
000000a0: fae4 603e e147 7dbe 1afb 0ebe 39fd 493b
000000b0: fd3e 573d 3744 113e 5bcd b4bd 4ef8 2dbe
000000c0: a72e 713d 6e84 ce3d 115f 93bd dcc5 84bd
000000d0: 92df 5dbc 7643 c93d e8f9 ea3c 2028 753c
000000e0: 9dad d83d 13c9 80be 5a96 263e 909e bc3d
000000f0: dcd4 2b3d ebac 21bd 5193 083e 0492 ef3c
00000100: a4bd 2cbd 771d d13d ba03 48be c65b 993d
00000110: ed19 92bc 6700 8c3d f324 96bd 076f 86be
00000120: 1f99 8dbd 1d83 35be bd4c dabc 2cc7 a7bc
00000130: 815b c23d da65 163d c69d cabc 77b2 da3d
00000140: ce5a e33d f004 2c3e 6edb 4b3d aa30 253e
00000150: 055c 3a3e ea3b 073e 6a1d 10bc 5554 80be
00000160: 470e c8bd 49ba 23be fa56 abbe d96c 88b9
00000170: 9e86 dc3c 7567 403d 4b44 db3d 92d5 1a3c
00000180: fa03 993d a693 bdbe c3f5 133c bd45 67bc
00000190: 9fa6 c6bd 6489 22bd 20ed 37bc a2fd e93d
000001a0: 1761 69be 97d9 543e 55f0 a53d d232 333d
000001b0: 9240 ba3c 77ed bbbd 2413 3ebd f29a eabd
000001c0: 08ed 50be 038d f33b 49b4 9dbc 794f 8ebd
000001d0: c392 ac3d 1aa3 8d3b dca4 e53d c489 f0bd
000001e0: 8172 0c3e 8227 fabd 90ea 2f39 c689 35bd
000001f0: 3f35 5b3d 8e14 333e 00ed 51be 6afd 02bd
00000200: 239a 923d 0d45 833d 6b64 4abd ec10 1dbe
00000210: 3725 ca3d bc2a 6e3d 1491 1e3e 3a68 123e
00000220: e8f4 adbc 180e 3bbe 7642 0bbd deec 773d
00000230: 13cd f93d 3528 debc d160 a5bd a7e5 653c
00000240: ea4a 893d 8640 87bc deb6 b83d 25d7 a43b
00000250: 001b 693d da3a 80bc a65e cdbd 98ef c43d
00000260: f99b 013d 0f33 633d 5e74 3fbe bbf6 fc3d
00000270: 10d6 0bbe 4ddd 2fbd 140b 46be 5d21 413e
00000280: cdeb ae3d cf88 95bd 261e 82bd eb18 73bd
00000290: 964c acbd d8ce 853c 06f1 44be b275 e7bd
000002a0: cb54 c93d 8370 16be 8a14 d1ba 1570 02bb
000002b0: 8b8c 5ebe 96f2 b8bd 679b f5bc 3f5c 173e
000002c0: bfd6 fd3b af47 8dbc 79ff bb3d c904 25be
000002d0: 2a2f 9dbd da20 f23d e323 87bc 3064 27bd
000002e0: e432 0e3d 0cd6 d03d 7e2b b53d 7355 03be
000002f0: d8cf 813d e281 103e 0507 8b3e cc96 ddbd
00000300: f55a 633e bd3f 673d 1bf4 853d 4952 02bd
00000310: c4cc 753d 51cb 98bd ccc2 27be 2206 123d
00000320: 9de0 643c 398b 423c a66d 093e a722 b23c
00000330: d573 313e a082 773d 3ab2 b03d 964c 18be
00000340: 57c4 033e 4801 83bd 0382 8cbd 4ea1 51bd
00000350: f933 eabb 9ef6 6e3e c2a8 133d de7c 373e
00000360: d173 cb3d 7d42 463d 7462 8bbd 2c48 1cbc
00000370: ee98 8abd 9908 cbbb b33a 63bc 1f19 36bd
00000380: 06cd 02be b9f6 803d 5eb6 523e 9962 c1bd
00000390: eea5 833e 8616 483d 83ef 24be a8b9 203e
000003a0: 88d7 14bd 9c35 373d ff52 443d eb0d a7bc
000003b0: 1029 11bd 43f7 893d 70c0 113e 4843 83bc
000003c0: f147 303d 7b1d 4dbe b9f1 20bd 2a75 46bd
000003d0: e7fd 02bd d322 17be 896a 2f3d c9ff ad3b
000003e0: 278d a03c 84d3 9e3d 7ddd 203e b2c4 1cbe
000003f0: 1583 17bd 53ad b23c 2f3e d2bc 4a09 063e
0.110033974 -0.15881051 -0.12375664 -0.14208786 -0.028427083 -0.0054880087 0.0711375 0.14291652
0.0633842 0.028862217 0.172292 -0.080588244 -0.20942031 -0.30757207 -0.018531002 0.029235996
0.16896228 -0.059737377 0.014374179 0.04281453 -0.17054649 -0.16605042 -0.06075318 0.004839723
0.0090255365 -0.04873901 -0.092697 0.122684956 -0.096464925 -0.088161126 -0.042407475 0.21403845
0.0009417943 0.0039520697 -0.081205815 0.030916242 -0.1354136 -0.09189762 -0.19062693 0.051505152
0.21962348 -0.24734451 -0.13962975 0.0030821098 0.052550305 0.14186178 -0.08828231 -0.16989252
0.05888238 0.10083853 -0.07195867 -0.06483051 -0.013542073 0.0982732 0.028683618 0.01496318
0.10579989 -0.25153407 0.16268292 0.09209931 0.041951045 -0.039471548 0.13337447 0.02924443
-0.042173043 0.10210698 -0.19532672 0.074882075 -0.017834628 0.06836014 -0.07331266 -0.26256582
-0.06913971 -0.17725797 -0.02664792 -0.020480715 0.09490109 0.036718227 -0.024733435 0.10678571
0.11101304 0.16798759 0.04976981 0.16131845 0.18199165 0.13206449 -0.008796075 -0.2506434
-0.09768348 -0.15989031 -0.33464795 -0.0002602104 0.02691966 0.046973664 0.10706385 0.009450333
0.074714616 -0.3702671 0.009030762 -0.014115748 -0.09699749 -0.039681807 -0.011225969 0.1142533
-0.22790943 0.20786129 0.0810248 0.043749638 0.022735868 -0.09176152 -0.046404973 -0.11455335
-0.2040292 0.0074325814 -0.019251006 -0.06948752 0.0842643 0.0043224217 0.11213085 -0.11745027
0.13715555 -0.12214567 0.00016776682 -0.044320844 0.053517576 0.1748831 -0.20500565 -0.031979956
0.071583055 0.06409655 -0.049412172 -0.15338486 0.098703794 0.058146223 0.1548503 0.14297572
-0.021234944 -0.18267095 -0.03399893 0.06052863 0.12197318 -0.027118782 -0.08075107 0.014031804
0.06703742 -0.01651026 0.09019254 0.00503053 0.056910515 -0.015653063 -0.100278184 0.096160114
0.031642888 0.055468615 -0.18696734 0.123517476 -0.13655877 -0.04293566 -0.19340163 0.18860383
0.08541069 -0.07301485 -0.063534066 -0.059349936 -0.08413045 0.016333982 -0.19232568 -0.113017455
0.09830626 -0.14691357 -0.0015951556 -0.0019903232 -0.217333 -0.090306446 -0.029981328 0.14781283
0.007746547 -0.017246095 0.09179587 -0.16115107 -0.076750115 0.11822672 -0.016496604 -0.04086703
0.0347165 0.10197076 0.08846186 -0.12825565 0.06338471 0.14112046 0.27153793 -0.10819778
0.22202666 0.05645727 0.065407 -0.031816754 0.060009733 -0.074606545 -0.16382903 0.03565038
0.013969568 0.011874014 0.13420734 0.02174504 0.17329343 0.060427308 0.08627744 -0.14872965
0.12867866 -0.06396729 -0.06860735 -0.051179223 -0.007147309 0.23336264 0.036049612 0.17918727
0.099341996 0.048403252 -0.06805888 -0.0095386915 -0.0676745 -0.0061960933 -0.013868975 -0.04445755
-0.12773523 0.062970586 0.2057738 -0.09442634 0.25712532 0.048849605 -0.16106991 0.15695822
-0.03633836 0.04472886 0.047930714 -0.020392379 -0.03543955 0.067366146 0.14233565 -0.016023293
0.04303736 -0.20030777 -0.039293025 -0.04845158 -0.03198042 -0.14759378 0.04282621 0.005310033
0.019598557 0.07755187 0.15709491 -0.15309408 -0.036990244 0.021811163 -0.025664417 0.13089481

predictor/conv3/b f4 [64]
00000000: d5b1 c4ba 7cab 37bb c0cb eeba 7cad 36bb
00000010: e7d6 07bc 7f80 a6bb a50a 04bc 69ac 3dbb
00000020: 5764 2dbb 474d e9ba 0493 7ebb 5351 c339
00000030: da5a 5bbb 6729 18bb da72 1bbc c0a6 85bb
00000040: c726 ffbb ed3c 8dbb d571 06bc b6cc eab9
00000050: 4def 28bc b2c6 ecbb a488 1b3c 98b8 2cbb
00000060: 90a3 02bc 8555 cebb b336 39ba 6c86 b2bb
00000070: e62e 64bc e4fc 84bb b322 8cbb dcd2 9a3a
00000080: f3a2 18bb 4663 48bb 1c74 19bb ec5f 01bc
00000090: 63c8 cbbb 5761 aebb 2a95 c2bb 39a5 abbb
000000a0: aa89 8fbb 1e0b b73b 97b3 d2bb d375 ffbb
000000b0: 2c06 86bc fccb 47bc 4eaf 4cbb e97b 63bc
000000c0: 28c2 07bc 0845 d0bb f214 853c f551 14bc
000000d0: 3db1 e3bb f0f0 a3bb 1fb1 12bb 0613 97bb
000000e0: 6b26 1bbc 75b3 0d3c 87a9 2abb f91f 4dbb
000000f0: cc18 88bb c935 e6ba d442 32bb 1306 8dbb
-0.0015006611 -0.0028025797 -0.0018218681 -0.00278744 -0.008290983 -0.005081236 -0.0080591785 -0.0028941876
-0.0026457512 -0.001779952 -0.0038844952 0.0003725389 -0.00334709 -0.0023218037 -0.009487832 -0.004078716
-0.007786605 -0.0043102414 -0.008205851 -0.0004478448 -0.01031096 -0.0072258348 0.009493027 -0.0026355144
-0.007973567 -0.006296816 -0.0007065341 -0.0054481532 -0.013927197 -0.004058467 -0.0042765974 0.0011812109
-0.0023290485 -0.003057675 -0.0023415154 -0.007896405 -0.0062189563 -0.0053216624 -0.005938192 -0.005238202
-0.0043804245 0.005586042 -0.0064301 -0.007796028 -0.016360365 -0.01219463 -0.003123242 -0.013884523
-0.008286037 -0.0063558854 0.016245339 -0.009052743 -0.0069486187 -0.005003087 -0.0022383404 -0.004610422
-0.009469609 0.008648743 -0.0026040988 -0.0031299575 -0.0041533466 -0.0017563637 -0.0027200477 -0.0043037026
