kinoko-takenoko.model (npz, 282598 bytes, 8 tensors)

predictor/conv2/W f4 [32, 16, 5, 5]
0.013514916 0.018047104 -0.026914705 -0.041547336 -0.05516916 0.03289682 -0.007950861 -0.0052654627
-0.0673356 -0.011037146 0.024496231 -0.06463682 0.045972142 -0.013412832 0.07281541 -0.032226454
0.028669463 -0.042555332 -0.030051444 0.11440692 -0.007194506 -0.02470483 0.044612564 0.0019023654
0.06469711 -0.010370525 0.05728103 0.05659596 -0.08172299 0.0066031585 -0.05508854 -0.029074235
0.020354789 0.062210456 0.0084282635 0.00096517743 -0.060142286 -0.001852646 -0.010200415 0.0485561
-0.0065492 -0.08173802 -0.031715617 -0.067092545 -0.021518618 0.053727824 0.08215911 0.013993019
-0.09796919 -0.11435595 0.101358496 -0.0036897722 0.07917013 -0.0065456238 0.019596262 -0.020311465
-0.014926275 0.070462406 -0.032265395 0.042256612 0.0037850575 -0.0940787 0.017120663 -0.059835657
0.057395965 0.034576196 -0.13950892 -0.022002598 -0.0070105116 -0.036338408 0.009259525 0.009684527
-0.035166685 0.057434298 -0.018894136 -0.016250089 0.015571925 -0.11394509 0.067686625 -0.013793888
0.00848289 -0.025520295 0.011046291 -0.018145615 -0.0677365 0.047818188 0.022369616 0.014062696
-0.074615054 -0.03211429 -0.0031799509 0.012495253 -0.106330715 0.0268176 -0.0013863056 -0.005790922
-0.05363953 0.02997842 0.09163673 0.007565113 0.029227944 0.018037131 0.0061697257 0.0064680516
0.012184052 -0.024542995 -0.027569247 -0.0658595 0.038652435 -0.004335718 -0.05919459 -0.02110971
-0.014842404 0.07123693 -0.027358921 -0.08604632 -0.11347093 -0.0050179577 -0.008197437 -0.0077558276
-0.0047706626 0.033764914 -0.009263199 0.07487728 -0.061063178 0.008954304 -0.08364456 -0.022796914
-0.053770978 -0.05627467 -0.05875041 -0.04343722 0.021863202 0.03633849 0.029850103 -0.05394943
-0.053681336 0.017475208 -0.10616688 0.003728095 -0.027550273 -0.069640495 0.04194368 0.014900261
0.023265338 -0.093089014 0.02927776 -0.079224184 -0.05679278 0.09889805 0.0146502415 -0.0010253029
0.016599229 0.035536613 -0.019244365 -0.029684797 0.062070638 0.050596286 -0.016281568 -0.0016402535
0.044617284 0.046943393 -0.04953929 -0.051031027 -0.010827017 0.05671761 0.00017268528 -0.059537623
-0.014491214 0.030615777 -0.012658981 0.078431174 0.019321183 0.112171225 0.021683684 0.0030553318
-0.011256686 -0.023549765 -0.005778113 -0.06682414 0.064129494 0.035125483 -0.009127558 -0.029691726
0.007953268 -0.021139994 0.05338247 -0.03310211 -0.00311295 0.03626626 0.021256909 0.10553245
-0.060464393 0.027195983 0.017169628 -0.07463559 -0.0377095 -0.002209233 -0.030708909 -0.00498172
-0.047475543 0.034256503 -0.018037511 0.0033299122 0.026424486 -0.02788635 0.003621715 0.011299144
0.055181485 0.032925095 -0.0067245164 -0.058967423 -0.116724715 -0.010246542 -0.021701237 0.011436213
-0.11272496 -0.015944207 -0.076694354 -0.04349011 -0.0010418772 -0.027487934 -0.023617314 -0.048388273
-0.048862427 0.00486466 0.023623608 0.048745673 0.050385997 -0.0012364966 -0.0017865446 -0.028247124
0.047108848 -0.059820864 0.052713435 0.040028177 0.04201467 -0.05030039 -0.083732694 -0.056863848
0.07662037 0.009211926 -0.03699444 -0.018942522 -0.049736213 0.018174335 -0.049312163 -0.074512176
-0.07159127 -0.07465312 -0.09961209 -0.0133581115 0.027951067 0.094194524 -0.09696015 -0.061388984
00000000: ab6d 5d3c 85d7 933c 3a7c dcbc 8a2d 2abd
00000010: 0ff9 61bd d1be 063d 5444 02bc e789 acbb
00000020: 3fe7 89bd 25d5 34bc 52ac c83c 4f60 84bd
00000030: 494d 3c3d 7fc1 5bbc 3f20 953d e3ff 03bd
00000040: 39dc ea3c 804e 2ebd 722e f6bc 2d4e ea3d
00000050: e4bf ebbb c961 cabc aabb 363d ca58 f93a
00000060: eb7f 843d 22e9 29bc 839f 6a3d 2ad1 673d
00000070: 625e a7bd 4f5f d83b 85a4 61bd 172d eebc
00000080: 16bf a63c 64d0 7e3d b316 0a3c f603 7d3a
00000090: c257 76bd 7cd4 f2ba a41f 27bc c3e2 463d
000000a0: ac9a d6bb 4366 a7bd 3ce8 01bd d167 89bd
000000b0: d047 b0bc b511 5c3d 0943 a83d fa42 653c
000000c0: 12a4 c8bd 7433 eabd 0b95 cf3d 1bd0 71bb
000000d0: f323 a23d ac7c d6bb 5788 a03c 3b64 a6bc
000000e0: 568d 74bc 984e 903d b828 04bd 4515 2d3d
000000f0: ba0e 783b 55ac c0bd a240 8c3c 3c16 75bd
00000100: 0818 6b3d c59f 0d3d 6ddb 0ebe cb3e b4bc
00000110: 6fb8 e5bb 95d7 14bd 43b5 173c daab 1e3c
00000120: f10a 10bd 3a40 6b3d e0c7 9abc e81e 85bc
00000130: 6321 7f3c 0b5c e9bd 499f 8a3d c2ff 61bc
00000140: d2fb 0a3c f00f d1bc 81fb 343c 1da6 94bc
00000150: 6fb9 8abd 01dd 433d 7c40 b73c 3967 663c
00000160: c7cf 98bd 468a 03bd b966 50bb e4b8 4c3c
00000170: ebc3 d9bd 95b0 db3c b2b4 b5ba c6c1 bdbb
00000180: 20b5 5bbd 4e95 f53c 0aac bb3d c4e4 f73b
00000190: 716f ef3c 9bc2 933c 692b ca3b f3f1 d33b
000001a0: 9e9f 473c 640e c9bc e7d8 e1bc 58e1 86bd
000001b0: 0452 1e3d a412 8ebb 0776 72bd 45ee acbc
000001c0: 8e2d 73bc abe4 913d d11f e0bc 0e39 b0bd
000001d0: 7263 e8bd ae6d a4bb 8b4e 06bc 9924 febb
000001e0: 3853 9cbb 144d 0a3d acc4 17bc 4259 993d
000001f0: 621d 7abd 13b5 123c d74d abbd 98c0 babc
00000200: f53e 5cbd 4580 66bd 45a4 70bd 3aeb 31bd
00000210: 751a b33c abd7 143d 3488 f43c 14fa 5cbd
00000220: f6e0 5bbd 2b28 8f3c 056e d9bd 0e53 743b
00000230: 1cb1 e1bc ad9f 8ebd 23cd 2b3d 3920 743c
00000240: f396 be3c 74a5 bebd ead7 ef3c 4a40 a2bd
00000250: 8c9f 68bd 108b ca3d 9107 703c 7563 86ba
00000260: 1bfb 873c d78e 113d 5ca6 9dbc 882d f3bc
00000270: c83d 7e3d 0d3e 4f3d ec60 85bc c6fd d6ba
00000280: 9dc0 363d b747 403d b6e9 4abd e905 51bd
00000290: cd63 31bc ba50 683d da12 3539 b9dd 73bd
000002a0: 8f6c 6dbc f0cd fa3c 9d67 4fbc 86a0 a03d
000002b0: 7547 9e3c 07ba e53d fba1 b13c f63b 483b
000002c0: f76d 38bc 70eb c0bc 5356 bdbb 18db 88bd
000002d0: 5356 833d bddf 0f3d c18b 15bc 103c f3bc
000002e0: 6c4e 023c c82d adbc 94a7 5a3d 1496 07bd
000002f0: a202 4cbb ee8b 143d f822 ae3c 6621 d83d
00000300: 83a9 77bd 1cca de3c 52a7 8c3c 8bda 98bd
00000310: 4775 1abd c7c8 10bb 4091 fbbc b23d a3bb
00000320: b775 42bd 8c50 0c3d 67c3 93bc a83a 5a3b
00000330: 2a78 d83c ea71 e4bc 4b5a 6d3b 0b20 393c
00000340: fb05 623d 77dc 063d 5559 dcbb d387 71bd
00000350: 5e0d efbd 1de1 27bc cbc6 b1bc f45e 3b3c
00000360: 58dc e6bd 6d9d 82bc ee11 9dbd b022 32bd
00000370: 998f 88ba 602e e1bc 1979 c1bc c832 46bd
00000380: f823 48bd ba67 9f3b 4c86 c13c 8ba9 473d
00000390: 8c61 4e3d f111 a2ba 7d2a eaba 8366 e7bc
000003a0: 35f5 403d b906 75bd 0bea 573d 96f4 233d
000003b0: 9317 2c3d c807 4ebd 0c7c abbd 11ea 68bd
000003c0: 24eb 9c3d 9eed 163c 7b87 17bd 592d 9bbc
000003d0: 33b8 4bbd 58e2 943c 8dfb 49bd d799 98bd
000003e0: 729e 92bd bce3 98bd 6c01 ccbd fbdb 5abc
000003f0: a3f9 e43c 0fe9 c03d 0b93 c6bd 0473 7bbd

predictor/l4/b f4 [2]
-0.0002249126 0.00022489547
00000000: 84d6 6bb9 ebd1 6b39

predictor/conv1/b f4 [16]
-0.010606591 -0.007481229 0.0012302074 -0.0032682747 0.00200972 -0.01187165 -0.011621828 0.02645769
0.0061076693 -0.015553277 -0.0039203786 -0.0036781775 -0.00906313 -0.006903277 0.0009157582 -0.009591898
00000000: 44c7 2dbc 1925 f5bb e93e a13a 8d30 56bb
00000010: 82b5 033b 4f81 42bc 7b69 3ebc ccbd d83c
00000020: d822 c83b 2cd3 7ebc 8576 80bb 940d 71bb
00000030: 867d 14bc e234 e2bb 7e0f 703a 5627 1dbc

predictor/conv3/W f4 [64, 32, 5, 5]
0.008015834 0.056293484 -0.026036898 0.025062116 -0.0111821825 0.003862786 -0.072379574 -0.012428682
-0.0062505975 0.03904915 0.009605307 -0.011752328 0.02360406 -0.0244342 -0.07226033 0.031245582
-0.016224965 -0.047179226 0.029321672 -0.018703656 0.02251661 -0.079233296 -0.0074063325 0.022498993
0.019325051 -0.0073312237 0.034604132 0.008887065 -0.02361236 0.004055018 0.0010590685 -0.0024513262
0.044857424 -0.019642271 -0.006336888 -0.006859611 -0.017000847 -0.033232562 -0.03022362 -0.011286236
-0.0393112 0.038086683 0.031964112 -0.018723985 0.041397307 0.009719706 -0.041161887 -0.014194428
-0.029518737 0.06480747 -0.014489398 0.018949162 -0.042671047 0.0069479193 -0.0023265062 0.053907122
0.015235012 -0.050170276 0.021324437 -0.046530247 0.049841836 -0.02943103 0.01883247 0.030679455
0.026351416 -0.044026233 -0.011883621 -0.019258438 0.035971154 0.033195842 -0.011036601 -0.045235902
0.10089034 -0.06769817 -0.0031055484 -0.035996273 -0.06081941 0.03542343 0.0018186416 0.09180249
0.0750543 -0.026964655 0.026362743 0.046904877 0.010961888 0.018726515 0.035580285 0.013366284
-0.03664413 -0.0008529351 -0.0030351644 0.010732848 0.020496702 -0.03291069 0.0027229674 0.009672394
-0.057945896 0.044269346 0.0040363506 -0.048097674 -0.0043990132 -0.0150345955 0.0025089178 -0.03944771
0.039661825 -0.010046765 -0.0032660565 -0.022553032 0.046316303 0.011243804 -0.0062096636 0.08427807
0.09310341 -0.0376292 -0.00014691724 0.0074922484 -0.01169261 -0.020507263 -0.048741046 0.02053828
0.087154314 -0.050544687 -0.01649739 0.01863514 -0.033337068 -0.027483221 0.06620544 -0.021478262
-0.00279769 0.041984275 0.0021148662 -0.030549545 0.009352857 0.0783846 0.047912695 0.04881395
0.011143257 -0.030984372 0.01142423 0.002391632 -0.0047633564 0.045762144 -0.010564646 -0.012848723
-0.0025411944 -0.026112681 -0.009307448 0.002045626 -0.017121578 0.092701375 0.015016349 -0.001013497
0.061578304 -0.035191186 -0.031023147 -0.011767436 0.015826128 -0.030749666 0.057695612 0.029319683
0.013680779 -0.0039934274 0.041949436 -0.039884616 -0.012469637 -0.023037592 0.012556983 -0.005481029
-0.0289916 -0.03474113 0.004516095 -0.0019447893 -0.024303116 0.037154436 0.00089152565 0.041436806
-0.018923251 0.04115011 0.045494568 -0.038243286 0.045958184 0.039886627 0.04946458 0.06195466
0.00698304 -0.03522553 -0.04295651 -0.014742751 0.04587305 0.0064534335 0.041776232 -0.045906093
0.040513624 0.040238213 0.0188558 0.029658908 -0.06251744 0.030474154 0.0064524016 -0.026289564
0.026117163 -0.033991702 0.017349895 -0.01885044 0.08384401 0.032225903 0.030205224 0.051643066
0.04279766 -0.007988242 0.035251837 0.0007915824 0.00029350634 0.018321745 0.0065804324 0.04164576
0.0040859827 -0.0007573126 0.033930384 0.036067255 0.0032650635 0.02544803 -0.00268549 -0.061532993
0.12012306 -0.028460586 0.013032616 0.0107916705 -0.02641469 0.025975255 -0.06345413 0.07672105
-0.06303959 -0.024530837 0.022471583 -0.041802086 0.021244906 -0.038344633 -0.027644614 0.008767573
-0.03294952 0.03598296 0.02185394 -0.090719156 -0.037205327 0.0072581987 0.009934453 0.016206546
-0.050112512 -0.04027334 -0.00093820615 -0.03340588 -0.032843065 0.013572155 0.022958064 0.023756659
00000000: d854 033c ff93 663d 554b d5bc 114f cd3c
00000010: 7935 37bc cc26 7d3b be3b 94bd aca1 4bbc
00000020: d0d1 ccbb 00f2 1f3d 945f 1d3c d68c 40bc
00000030: 4d5d c13c 3b2a c8bc 39fd 93bd bcf6 ff3c
00000040: 38ea 84bc 013f 41bd 0134 f03c 6938 99bc
00000050: c174 b83c 1145 a2bd d2b0 f2bb cf4f b83c
00000060: 924f 9e3c c33a f0bb 10bd 0d3d 0d9b 113c
00000070: b56e c1bc f5df 843b 71d0 8a3a 6ea6 20bb
00000080: 6bbc 373d d4e8 a0bc aba5 cfbb 96c6 e0bb
00000090: 5c45 8bbc de1e 08bd 8697 f7bc e8e9 38bc
000000a0: c804 21bd c800 1c3d cdec 023d 0b63 99bc
000000b0: 3990 293d 673f 1f3c 5e99 28bd bf8f 68bc
000000c0: 47d1 f1bc c7b9 843d f164 6dbc 463b 9b3c
000000d0: d6c7 2ebd 5fab e33b 4c78 18bb b7cd 5c3d
000000e0: 469c 793c 597f 4dbd 96b0 ae3c 8096 3ebd
000000f0: f426 4c3d 5819 f1bc 8d46 9a3c 7b53 fb3c
00000100: edde d73c da54 34bd 85b3 42bc dfc3 9dbc
00000110: 7d56 133d 5df8 073d dcd2 34bc 4849 39bd
00000120: 989f ce3d 57a5 8abd 7586 4bbb d470 13bd
00000130: c61d 79bd 2918 113d 7c5f ee3a f202 bc3d
00000140: 12b6 993d fbe4 dcbc aef6 d73c 541f 403d
00000150: 7e99 333c 5968 993c a2bc 113d 42fe 5a3c
00000160: 2818 16bd 8197 5fba 9ce9 46bb d4d8 2f3c
00000170: b3e8 a73c 5ccd 06bd d073 323b f678 1e3c
00000180: ad58 6dbd c653 353d 5d43 843b 1102 45bd
00000190: 9925 90bb aa53 76bc a86c 243b ec93 21bd
000001a0: 7074 223d 309b 24bc 560b 56bb 23c1 b8bc
000001b0: 2ab6 3d3d ef37 383c 6f7a cbbb fb99 ac3d
000001c0: 00ad be3d 1321 1abd cc0d 1ab9 8981 f53b
000001d0: 5c92 3fbc d9fe a7bc b1a4 47bd e53f a83c
000001e0: f67d b23d f207 4fbd 8925 87bc b9a8 983c
000001f0: 738c 08bd 7e24 e1bc b896 873d 2ef3 afbc
00000200: 7359 37bb b4f7 2b3d 9199 0a3b 0a43 fabc
00000210: ba3c 193c 1b88 a03d 1a40 443d 23f1 473d
00000220: 3592 363c f0d2 fdbc b22c 3b3c edbc 1c3b
00000230: ee15 9cbb 1671 3b3d 5617 2dbc 7383 52bc
00000240: 2b8a 26bb 43ea d5bc 447e 18bc e90f 063b
00000250: 8d42 8cbc 38da bd3d 2207 763c 51d7 84ba
00000260: 8839 7c3d a224 10bd 4124 febc 34cc 40bc
00000270: cca5 813c b9e6 fbbc 3c52 6c3d d52f f03c
00000280: 5925 603c 4cdb 82bb 2cd3 2b3d 0d5e 23bd
00000290: 734d 4cbc 55b9 bcbc cebb 4d3c 349a b3bb
000002a0: cb7f edbc b74c 0ebd c0fb 933b 4de8 feba
000002b0: 5417 c7bc 402f 183d 46b5 693a a4b9 293d
000002c0: ef04 9bbc 058d 283d 8358 3a3d fea4 1cbd
000002d0: a63e 3c3d 2960 233d 5f9b 4a3d 2bc4 7d3d
000002e0: fcd1 e43b a548 10bd 2af3 2fbd 948b 71bc
000002f0: 61e5 3b3d 5377 d33b 8e1d 2b3d 0708 3cbd
00000300: 9df1 253d d3d0 243d 7b77 9a3c 3df7 f23c
00000310: 2509 80bd efa4 f93c ab6e d33b 365d d7bc
00000320: a9f3 d53c e23a 0bbd 5e21 8e3c 3d6c 9abc
00000330: 69b6 ab3d 4fff 033d f270 f73c ae87 533d
00000340: 994c 2f3d 1ee1 02bc 3b64 103d 3282 4f3a
00000350: c1e1 9939 7c17 963c aba0 d73b bf94 2a3d
00000360: b5e3 853b 6386 46ba 96fa 0a3d 42bb 133d
00000370: adfa 553b 6378 d03c 0cff 2fbb 050a 7cbd
00000380: 1403 f63d 2d26 e9bc c186 553c 8ccf 303c
00000390: 9f63 d8bc 0fca d43c 3df4 81bd ed1f 9d3d
000003a0: e71a 81bd e5f4 c8bc 5316 b83c aa38 2bbd
000003b0: cc09 ae3c 430f 1dbd f576 e2bc dea5 0f3c
000003c0: 13f6 06bd de62 133d 0907 b33c f7ca b9bd
000003d0: 9d64 18bd 2fd6 ed3b 1ec4 223c 97c3 843c
000003e0: c742 4dbd a8f5 24bd f3f1 75ba 9bd4 08bd
000003f0: 7386 06bd be5d 5e3c 8d12 bc3c 539d c23c

predictor/l4/W f4 [2, 5184]
-0.04720197 -0.04471218 -0.04655083 0.015156948 0.06286756 0.013027783 -0.10008662 0.05172748
-0.14835957 0.026484324 0.04829772 0.09858116 -0.05228279 0.0047335676 0.0018415736 0.019428998
0.06663503 0.015046085 -0.012291776 -0.05536993 -0.0813798 -0.013080325 0.022072604 -0.031868536
0.05739568 -0.06385492 0.00263893 0.031872496 -0.008780736 0.024874097 -0.023241257 0.038380962
0.056555003 0.04477746 -0.025449159 -0.022154909 -0.017061872 0.009347805 0.016677376 -0.07577347
0.015845751 -0.061252158 -0.02160329 0.008004094 -0.0544101 0.003934627 0.015874345 0.014789593
0.063121244 0.024783883 -0.056671854 0.045920912 0.008834344 0.099265926 -0.04376638 -0.07016404
0.030450493 -0.07828738 -0.057448063 -0.011835295 -0.049507827 -0.010041939 0.03454545 0.04457344
0.015421225 -0.0075550065 0.013685465 -0.0092859715 0.0763189 -0.04840691 -0.0025223796 0.095266126
0.047077093 0.017047655 -0.10367088 -0.03578744 0.041381247 0.020286636 0.0549804 -0.034285437
0.019927947 -0.06669671 -0.08334849 0.04540024 -0.021668147 0.020469308 -0.0087771285 -0.0268284
-0.07268004 -0.057956994 -0.021134043 -0.11513235 0.036123507 0.00055849005 0.026951976 -0.05846979
-0.026520621 0.006827747 0.066250786 -0.03883079 0.017496668 0.022589285 0.03321318 0.11467512
-0.019389328 -0.037588287 -0.058387224 -0.022647949 0.018253863 -0.00046294276 0.003214995 0.08851038
-0.08711907 -0.04881093 0.098351315 -0.0656906 -0.10021435 -0.027396478 -0.0093912 0.12160425
0.026383143 0.0018157538 -0.067230135 -0.06942393 0.07123844 -0.03084122 -0.058343828 -0.15790017
-0.028856236 0.036953665 0.15033604 -0.048209768 -0.019989258 0.02822254 -0.029609798 0.027287537
-0.009388251 -0.06021272 -0.030092813 0.1465789 0.17042153 -0.07205657 0.022164622 0.0010689036
0.039906986 0.041757047 -0.032571405 0.04589238 -0.0017924176 -0.029632507 -0.03837032 0.010547253
-0.068185866 0.034335457 0.013698703 0.0078077423 -0.03240948 0.06298625 0.0043804334 -0.027307196
-0.09833571 0.044571918 0.043032683 -0.045447174 -0.049120873 -0.017470485 -0.025903214 0.02514985
0.04368444 0.062460743 -0.015610811 -0.052644257 -0.014164664 0.007444673 0.04259087 -0.053082164
0.07968476 0.045329932 0.100538135 -0.0274063 -0.025651807 0.01753354 -0.050991733 0.0046792226
-0.0014983626 0.027817618 -0.028656336 -0.10692284 -0.06378464 -0.08116645 -0.022704529 0.0035308935
0.045379464 0.022088407 -0.031271044 -0.026857216 -0.019852355 -0.035590477 -0.05079743 -0.026418982
-0.01240687 -0.06983856 -0.01071443 -0.021780323 0.116310395 0.018697111 -0.01730557 0.031864524
0.09043199 0.065280885 -0.03659161 0.033572678 -0.060555607 -0.01102267 -0.042485602 0.003481028
0.0067931283 -0.04275008 0.054816015 0.055213284 -0.026961867 0.030922065 -0.055685367 0.0433784
0.028619682 -0.059941348 -0.0076435013 0.13761222 -0.007907378 0.022946447 -0.048940994 -0.0025794934
-0.03402265 -0.014362527 0.149075 -0.011556811 -0.0044553927 -0.09795179 -0.0064604497 0.062324636
0.0067578657 -0.0082328655 0.080446355 -0.04359369 -0.036917135 -0.014217913 0.02498351 0.05933384
-0.074523315 -0.011049032 0.0075434656 0.0023643048 0.04087196 -0.029132 -0.016259545 0.06482398
00000000: da56 41bd 1e24 37bd 15ac 3ebd d954 783c
00000010: b5c0 803d 7b72 553c 37fa ccbd 32e0 533d
00000020: 92eb 17be a7f5 d83c d4d3 453d ebe4 c93d
00000030: 7b26 56bd 0b1c 9b3b f560 f13a 9029 9f3c
00000040: f277 883d db83 763c 7263 49bc 94cb 62bd
00000050: 74aa a6bd dc4e 56bc 9bd1 b43c 9588 02bd
00000060: bc17 6b3d 5ec6 82bd e6f1 2c3b bc8c 023d
00000070: 13dd 0fbc c3c4 cb3c 7364 bebc 5b35 1d3d
00000080: 38a6 673d 9268 373d c17a d0bc 367e b5bc
00000090: 57c5 8bbc 8927 193c fe9e 883c 1f2f 9bbd
000000a0: f3ce 813c 8be3 7abd 62f9 b0bc 9a23 033c
000000b0: 20dd 5ebd 0bee 803b ea0a 823c 0d50 723c
000000c0: b645 813d 9207 cb3c bf20 68bd 9117 3c3d
000000d0: edbd 103c ef4b cb3d 6044 33bd 2ab2 8fbd
000000e0: 5073 f93c 2255 a0bd a94e 6bbd d3e8 41bc
000000f0: b8c8 4abd f286 24bc 887f 0d3d a492 363d
00000100: 4ea9 7c3c fd8f f7bb 0039 603c 3024 18bc
00000110: 154d 9c3d 5346 46bd 824e 25bb e31a c33d
00000120: e9d3 403d 86a7 8b3c 6651 d4bd da95 12bd
00000130: 627f 293d 2930 a63c 2133 613d e36e 0cbd
00000140: ef3f a33c 4998 88bd 9db2 aabd 9af5 393d
00000150: 6681 b1bc 40af a73c f2cd 0fbc 3cc7 dbbc
00000160: 46d9 94bd 5064 6dbd 4d21 adbc 82ca ebbd
00000170: 3ef6 133d a267 123a 64ca dc3c 057e 6fbd
00000180: c641 d9bc 4bbb df3b 7eae 873d 090d 1fbd
00000190: 2c55 8f3c 2a0d b93c 8b0a 083d cada ea3d
000001a0: 5ed6 9ebc 2df6 19bd 7127 6fbd 3188 b9bc
000001b0: 2089 953c 20b7 f2b9 aab2 523b ee44 b53d
000001c0: 7c6b b2bd f8ed 47bd 6a6c c93d cb88 86bd
000001d0: 2e3d cdbd 946e e0bc 8cdd 19bc a60b f93d
000001e0: 7621 d83c 96fe ed3a f4af 89bd 222e 8ebd
000001f0: 76e5 913d baa6 fcbc f0f9 6ebd 95b0 21be
00000200: ea63 ecbc ba5c 173d b1f1 193e 9b77 45bd
00000210: 83c0 a3bc f532 e73c 3f90 f2bc 1d8a df3c
00000220: 2ed1 19bc 9da1 76bd 3485 f6bc c718 163e
00000230: fb82 2e3e 6592 93bd 9592 b53c 741a 8c3a
00000240: 8275 233d 7009 2b3d 9869 05bd a6f9 3b3d
00000250: 8eef eaba dfbf f2bc 322a 1dbd 63ce 2c3c
00000260: 08a5 8bbd 56a3 0c3d 8670 603c 17d8 ff3b
00000270: cebf 04bd effe 803d bd89 8f3b 57b3 dfbc
00000280: 3c64 c9bd 0b91 363d 0a43 303d d126 3abd
00000290: f832 49bd 431e 8fbc fa32 d4bc 0f07 ce3c
000002a0: 75ee 323d d6d6 7f3d 7dc4 7fbc 81a1 57bd
000002b0: e812 68bc 72f2 f33b c473 2e3d af6c 59bd
000002c0: c331 a33d e1ab 393d f0e6 cd3d 2d83 e0bc
000002d0: bd23 d2bc 80a2 8f3c b5dc 50bd 2a54 993b
000002e0: b564 c4ba c6e1 e33c b1c0 eabc 5dfa dabd
000002f0: 85a1 82bd 993a a6bd d9fe b9bc 9066 673b
00000300: d1df 393d bff2 b43c 1116 00bd aa03 dcbc
00000310: 68a1 a2bc 52c7 11bd f710 50bd 9f6c d8bc
00000320: 2f46 4bbc 8507 8fbd 948b 2fbc a66c b2bc
00000330: 2534 ee3d af2a 993c 69c4 8dbc 6084 023d
00000340: 6834 b93d fcb1 853d 16e1 15bd 8183 093d
00000350: 2809 78bd 6e98 34bc 6205 2ebd f521 643b
00000360: e498 de3b b51a 2fbd c286 603d 5327 623d
00000370: 22df dcbc 4550 fd3c 5716 64bd 8dad 313d
00000380: d373 ea3c 0f85 75bd 5676 fabb 38ea 0c3e
00000390: f28d 01bc 30fa bb3c 5a76 48bd b80c 29bb
000003a0: 565b 0bbd ce50 6bbc 1ea7 183e c758 3dbc
000003b0: 8bfe 91bb f39a c8bd 2eb2 d3bb 1e48 7f3d
000003c0: 1671 dd3b 24e3 06bc 0fc1 a43d 4c8f 32bd
000003d0: 6c36 17bd 40f2 68bc 38aa cc3c 0a08 733d
000003e0: ae9f 98bd 0007 35bc 2d2f f73b 74f2 1a3b
000003f0: 5b69 273d 3ba6 eebc bd32 85bc 6fc2 843d

predictor/conv2/b f4 [32]
-0.0062297476 -0.006992201 -0.0025589787 -0.0049436917 -0.009535918 -0.014606708 -0.014278893 -0.009774682
-0.006543781 -0.005734183 -0.004625485 -0.0051732883 -0.0106176045 -0.013504088 0.014380312 -0.011489022
0.0029218497 -0.0075149927 -0.0022716718 -0.011261375 -0.0061188913 -0.0031603896 -0.00676604 -0.007613137
-0.004516242 -0.005030241 -0.0026387724 -0.0043844436 0.008787093 -0.016043767 -0.015212002 0.005004695
00000000: e922 ccbb d51e e5bb 8ab4 27bb b1fe a1bb
00000010: 8a3c 1cbc f950 6fbc 05f2 69bc fd25 20bc
00000020: 376d d6bb d0e5 bbbb 6191 97bb b084 a9bb
00000030: 76f5 2dbc 4040 5dbc 669b 6b3c 733c 3cbc
00000040: 817c 3f3b 5440 f6bb 54e0 14bb a181 38bc
00000050: fb80 c8bb 8a1e 4fbb a8b5 ddbb 9f77 f9bb
00000060: fcfc 93bb b8d4 a4bb 41ef 2cbb 61ab 8fbb
00000070: bdf7 0f3c 386e 83bc c33b 79bc 6dfe a33b

predictor/conv1/W f4 [16, 3, 5, 5]
0.023049656 -0.12196106 -0.09542081 0.12375424 -0.008192191 -0.11751603 0.13274316 0.13060653
0.16334814 0.11564407 0.12646914 -0.26417542 0.1345875 0.009759616 -0.04723084 -0.024477294
-0.124928124 -0.07197953 -0.17124481 -0.011519071 0.118637905 -0.17013115 0.08919981 -0.09401849
0.019860195 -0.21916439 -0.041532498 0.13971503 -0.083037846 -0.10446952 -0.023066156 0.2043207
-0.0176467 -0.08837103 -0.30057934 0.08500064 0.11713135 0.0497903 0.24837664 -0.00045080498
-0.13638048 0.11008735 0.009179004 -0.07494372 0.115547895 -0.08205258 0.13682619 -0.01209667
-0.023673957 -0.028160842 -0.22371764 -0.064889096 -0.096138865 0.052355375 -0.02682079 -0.019894293
-0.25095662 0.22207382 0.050314635 0.11025875 0.009709801 -0.23982945 -0.08646818 -0.08494552
-0.014581057 -0.104634814 0.057633843 -0.0053468556 -0.1558398 0.10169326 0.029161932 -0.026352976
0.14697082 -0.18814147 -0.10085161 -0.17026587 0.12545191 0.123855025 -0.102055006 -0.08341508
0.20408979 -0.13285054 -0.23952611 -0.15536161 9.396486e-05 -0.12202891 -0.16528903 0.05846867
-0.26183808 0.1501416 -0.2725681 0.12672037 0.02982293 0.09226664 -0.33445284 -0.017163513
0.006748961 0.26085946 -0.055347066 0.093860954 0.11805391 0.13566078 -0.09082127 -0.17642313
-0.050155353 -0.09606962 -0.12647183 0.049635526 0.034470778 -0.00789567 0.20334083 -0.07822427
-0.19284208 -0.08593221 0.004941334 0.07079805 -0.013194808 -0.09304906 -0.03575346 -0.04065867
0.08315546 0.22951649 -0.0121169 0.11323526 -0.008933622 -0.18285461 -0.0016763684 -0.06713657
-0.09487594 0.023357911 0.03034816 0.0909111 0.016235499 0.09857928 -0.007805047 0.060911737
-0.16858117 0.27090058 0.027527412 -0.1733832 -0.07658601 0.057852913 -0.039722983 -0.0962448
0.1487996 0.06998354 0.20960878 -0.00027394187 0.1055419 0.0934944 0.10250864 0.123261616
0.05706619 -0.05782322 -0.07364588 0.13264392 0.13502224 -0.2566724 -0.06036632 0.1502682
0.16565506 -0.012070282 -0.059037104 0.021969998 -0.060678232 -0.12475712 -0.053986758 -0.12769395
0.07357125 0.09936109 0.09389011 0.13294521 0.20174885 0.11798279 -0.17332675 -0.109723195
0.015614198 -0.015455737 0.038777124 -0.08438405 0.0003905175 -0.12366474 -0.47755674 -0.16905883
-0.09186116 -0.076103605 -0.101137035 -0.036814626 0.14758699 0.011159254 0.27895567 0.08413747
-0.1232874 -0.101243354 0.02886909 -0.040159486 -0.031360894 0.17027473 0.27406043 -0.11353385
-0.24295793 -0.0038175662 -0.090519935 0.13989477 0.07303954 -0.051036168 -0.14965948 -0.07018771
-0.22115797 -0.12994216 -0.24838485 0.0062005697 -0.05115006 -0.19084801 0.008132712 -0.11044321
-0.16607574 0.112890095 0.20484757 0.07655108 0.0024370134 0.1634808 -0.15388533 -0.11834812
0.17807753 -0.103417255 0.0047464077 0.18358882 -0.123502485 0.16942574 -0.027749933 0.0764518
0.047107637 0.087938964 0.03623693 0.0008057715 0.056281425 -0.2468016 -0.04763916 0.10597746
0.037980102 0.012380683 0.105315246 0.1433876 0.019531066 0.061999578 0.19512011 0.18114184
-0.11029864 -0.019157397 -0.061442904 0.057353307 0.26558357 0.038408853 0.20433235 0.041674715
00000000: a2d2 bc3c b8c6 f9bd fc6b c3bd dd72 fd3d
00000010: 8a38 06bc 3fac f0bd d3ed 073e b8bd 053e
00000020: bc44 273e ccd6 ec3d 2081 013e 0042 87be
00000030: 4ed1 093e cce6 1f3c 2075 41bd 9b84 c8bc
00000040: 51da ffbd 016a 93bd cd5a 2fbe 7cba 3cbc
00000050: 6ef8 f23d dc36 2ebe 64ae b63d c48c c0bd
00000060: d9b1 a23c a16c 60be fb1d 2abd 7511 0f3e
00000070: bf0f aabd 1ef4 d5bd 3cf5 bcbc 7239 513e
00000080: d08f 90bc dffb b4bd 89e5 99be d114 ae3d
00000090: 90e2 ef3d eaf0 4b3d 7256 7e3e 055a ecb9
000000a0: 53a7 0bbe 7a75 e13d 8863 163c 187c 99bd
000000b0: 60a4 ec3d 2f0b a8bd 2a1c 0c3e 1d31 46bc
000000c0: e3ef c1bc 91b1 e6bc 3d16 65be 93e4 84bd
000000d0: 74e4 c4bd 9772 563d 46b7 dbbc 5bf9 a2bc
000000e0: 637d 80be 5267 633e b816 4e3d 57cf e13d
000000f0: db15 1f3c da95 75be 3b16 b1bd ebf7 adbd
00000100: 63e5 6ebc c74a d6bd 7711 6c3d ad34 afbb
00000110: 7894 1fbe 8e44 d03d 01e5 ee3c 32e2 d7bc
00000120: 857f 163e 28a8 40be 4a8b cebd 2d5a 2ebe
00000130: 7776 003e b4a7 fd3d 3702 d1bd 87d5 aabd
00000140: eafc 503e f909 08be 5546 75be 1d17 1fbe
00000150: 000f c538 4bea f9bd 8741 29be d87c 6f3d
00000160: a40f 86be b8be 193e 0c8e 8bbe fcc2 013e
00000170: 384f f43c 4bf6 bc3d 673d abbe 7f9a 8cbc
00000180: 6326 dd3b 5f8f 853e 9bb3 62bd 2c3a c03d
00000190: 40c6 f13d a9ea 0a3e 8100 babd 44a8 34be
000001a0: b36f 4dbd 26c0 c4bd d581 01be 9f4e 4b3d
000001b0: 3b31 0d3d d75c 01bc 9438 503e 0c34 a0bd
000001c0: 6578 45be 3afd afbd eaea a13b 91fe 903d
000001d0: 092f 58bc 8190 bebd 3872 12bd b589 26bd
000001e0: 694d aa3d 5f06 6b3e f685 46bc e3e7 e73d
000001f0: 545e 12bc 3d3e 3bbe 97b9 dbba e67e 89bd
00000200: 514e c2bd 1759 bf3c b49c f83c 992f ba3d
00000210: 4f00 853c efe3 c93d 7bc1 ffbb 967e 793d
00000220: 8ba0 2cbe 7bb3 8a3e 2b81 e13c 5e8b 31be
00000230: 20d9 9cbd 2df7 6c3d 91b4 22bd fe1b c5bd
00000240: ec5e 183e 8853 8f3d afa3 563e db9f 8fb9
00000250: 5a26 d83d fe79 bf3d 0df0 d13d 9670 fc3d
00000260: 3dbe 693d 0ad8 6cbd a7d3 96bd cfd3 073e
00000270: 4543 0a3e 916a 83be ad42 77bd e8df 193e
00000280: 7ba1 293e 6fc2 45bc e4d0 71bd 6dfa b33c
00000290: bd89 78bd a980 ffbd 3821 5dbd 34c2 02be
000002a0: 86ac 963d d47d cb3d 7549 c03d ca22 083e
000002b0: 4097 4e3e f6a0 f13d 917c 31be 8eb6 e0bd
000002c0: b1d2 7f3c 0f3a 7dbc c3d4 1e3d 8bd1 acbd
000002d0: 5fbe cc39 f043 fdbd 5182 f4be c21d 2dbe
000002e0: b421 bcbd 35dc 9bbd ef20 cfbd efca 16bd
000002f0: 0b21 173e 4ed5 363c 47d3 8e3e 4450 ac3d
00000300: 1b7e fcbd ad58 cfbd df7e ec3c 467e 24bd
00000310: 4874 00bd 805c 2e3e a651 8c3e 6f84 e8bd
00000320: f7c9 78be 2230 7abb 8462 b9bd 9340 0f3e
00000330: c195 953d 4d0b 51bd 5640 19be 93be 8fbd
00000340: 3c77 62be 8f0f 05be 9958 7ebe 262e cb3b
00000350: ba82 51bd a96d 43be 113f 053c 0d30 e2bd
00000360: c20f 2abe ec32 e73d 90c3 513e d0c6 9c3d
00000370: 4db6 1f3b 8367 273e 1e94 1dbe 8060 f2bd
00000380: f559 363e 6dcc d3bd c187 9b3b b5fe 3b3e
00000390: dfee fcbd f17d 2d3e d453 e3bc c392 9c3d
000003a0: f0f3 403d 5819 b43d 2d6d 143d 693a 533a
000003b0: 5a87 663d 8fb9 7cbe 4821 43bd b60a d93d
000003c0: 0691 1b3d 59d8 4a3c 85af d73d 33d4 123e
000003d0: 9dff 9f3c 45f3 7d3d 91cd 473e 3f7d 393e
000003e0: 41e4 e1bd f9ef 9cbc 8eab 7bbd 4deb 6a3d
000003f0: 92fa 873e 9a52 1d3d 803c 513e 1bb3 2a3d

predictor/conv3/b f4 [64]
-0.006164399 -0.00045596494 -0.0050432147 -0.006303556 -0.006978702 0.010407432 -0.0056763603 -0.006664696
0.0020898827 -0.0018719478 -0.002276719 -0.013270199 -0.008968664 -0.0071267537 -0.0034891372 -0.005148012
-0.0053859656 -0.0066503608 -0.004233526 -0.0046856147 -0.0045554037 -0.0074767782 -0.008523218 -0.014611807
-0.0028307252 -0.005114107 -0.0021103604 -0.00579785 -0.013259234 -0.006032788 -0.018000007 0.00014416964
-0.01149326 0.0026162844 -0.00083013804 -0.013424277 -0.00892714 0.0120463045 0.0092309825 -0.0010222446
-0.0036798671 -0.0043941652 0.016666217 -0.0056907795 -0.0034225625 -0.006159358 -0.0071667577 -0.010559996
0.0041143848 -0.000757449 -0.0015177655 -0.00921024 0.01408546 -0.009360381 -0.0030282254 0.0033551168
-0.0054067993 0.0007748743 -0.009943812 -0.009411417 -0.010720865 -0.0069994256 -0.0064305733 -0.011333228
00000000: bafe c9bb 940e efb9 8d41 a5bb 0f8e cebb
00000010: 98ad e4bb ef83 2a3c c300 babb 8663 dabb
00000020: 6af6 083b 255c f5ba 0235 15bb 406b 59bc
00000030: 4ef1 12bc 8b87 e9bb 02aa 64bb a8b0 a8bb
00000040: c17c b0bb 45eb d9bb 64b9 8abb c989 99bb
00000050: 7f45 95bb c3ff f4bb f8a4 0bbc 5c66 6fbc
00000060: b083 39bb 3d94 a7bb f94d 0abb e4fb bdbb
00000070: 423d 59bc b2ae c5bb c074 93bc 3e2c 1739
00000080: 3a4e 3cbc f875 2b3b 9f9d 59ba 80f1 5bbc
00000090: 2443 12bc dd5d 453c 8c3d 173c d6fc 85ba
000000a0: ed29 71bb eefc 8fbb 9787 883c b879 babb
000000b0: 124d 60bb 71d4 c9bb 1fd7 eabb d503 2dbc
000000c0: f6d1 863b 8b8f 46ba c2ef c6ba 8ce6 16bc
000000d0: b4c6 663c 495c 19bc 3175 46bb 85e1 5b3b
000000e0: 852b b1bb ef20 4b3a 5feb 22bc 5832 1abc
000000f0: 91a6 2fbc 705b e5bb 8fb7 d2bb 01af 39bc
